best_model_weights.pth (torch, 130379 bytes, 12 tensors)

gcn1.bias f4 [32]
0	0x3dbfde8a	0.09368618
1	0x3df27a64	0.118397504
2	0x3e0ac9ab	0.13553493
3	0x3e19ff8d	0.15038891
4	0x3c41a0f9	0.011818164
5	0x3e075cf2	0.1321905
6	0x3e046b12	0.12931469
7	0x3e164650	0.1467526
8	0x3de08934	0.109636694
9	0x3e1d2187	0.15344821
10	0x3e1ec73b	0.15505688
11	0x3e1a6ab8	0.15079772
12	0x3e160d18	0.14653432
13	0x3dc04d72	0.093897715
14	0x3e0c89c9	0.13724436
15	0xbc974597	-0.0184658
16	0x3da46831	0.080276854
17	0x3d8b5feb	0.06805404
18	0x3dd4d0f2	0.10391416
19	0x3e1ad3c0	0.15119839
20	0x3e0c1921	0.13681461
21	0x3e0eb3af	0.13935731
22	0x3e08f847	0.1337596
23	0x3e0bcfde	0.13653514
24	0x3e09529a	0.13410416
25	0x3d83882f	0.06422459
26	0x3dc29201	0.09500504
27	0x3df03571	0.11728943
28	0x3e0ece27	0.13945828
29	0x3e0d9bc2	0.13828948
30	0xbc04173a	-0.008062178
31	0x3db89e39	0.090145536

gcn1.lin.weight f4 [32, 9]
0	0xbb424096	-0.0029640547
1	0x3ec516f6	0.3849408
2	0xbdaa39f9	-0.08311839
3	0x3e0a62f9	0.13514318
4	0x3e99e27c	0.30055606
5	0x3c7100a4	0.014709625
6	0x3ce74e66	0.028235625
7	0x3d8b0edf	0.06789946
8	0x3e02474f	0.12722515
9	0x3ea063fd	0.31326285
10	0x3ecf3bfa	0.40475446
11	0x3c180407	0.009278304
12	0xbcc5362e	-0.024073686
13	0x3ec8595e	0.39130682
14	0xbec04b75	-0.3755757
15	0xbe102e29	-0.14080109
16	0xbca185fb	-0.019717207
17	0xbb10c75b	-0.0022091481
18	0xbe14dd49	-0.14537539
19	0x3ed4ffb1	0.41601327
20	0xbd9ed4ad	-0.077554084
21	0x3e9b429c	0.30324256
22	0xbeb57012	-0.35437065
23	0xbe13cff3	-0.14434795
24	0xbe129975	-0.14316352
25	0x3ef6b426	0.48184317
26	0x3eb57be8	0.35446095
27	0xbe24bad6	-0.16086897
28	0x3e7b8525	0.2456251
29	0x3e496dcc	0.1967079
30	0x3e4a90e2	0.19781831
31	0x3f00980f	0.50232023
32	0x3e8634de	0.2621221
33	0x3e7a0a65	0.24418028
34	0x3e02d4ee	0.12776539
35	0xbc795a1e	-0.0152192395
36	0x3e248903	0.16067891
37	0x3e6cbea3	0.23119597
38	0x3e841255	0.25795236
39	0xbceeed24	-0.029165812
40	0x3d16354e	0.03667193
41	0xbe8b7f7b	-0.27245697
42	0x3e97bf88	0.29638314
43	0xbe8463b5	-0.2585732
44	0xbe26d89e	-0.1629357
45	0x3ed7a8d4	0.42120993
46	0x3efbfb0b	0.49214968
47	0x3e770901	0.24124528
48	0x3e2fd1ce	0.17169878
49	0xbe55d35b	-0.20881407
50	0xbe515375	-0.20441993
51	0xbdbe6017	-0.092956714
52	0x3e49d820	0.19711351
53	0x3e607ab0	0.21921802
54	0xbbf53128	-0.0074826665
55	0x3efa2eda	0.4886387
56	0xbea04942	-0.3130589
57	0x3efeb8b8	0.49750304
58	0xbcd717fa	-0.02625655
59	0xbdcad493	-0.099038266
60	0x3e4956f9	0.19662084
61	0x3ef07706	0.46965808
62	0x3dbefe7a	0.09325881
63	0x3ed2b6e8	0.4115517
64	0xbc45507c	-0.012043115
65	0xbe6e70d1	-0.23285224
66	0xbcce1fd6	-0.025161665
67	0x3ed4d07f	0.4156532
68	0x3e1258ec	0.14291734
69	0xbe23e1e6	-0.16004142
70	0xbe1ade1a	-0.15123788
71	0xbe310f08	-0.1729089
72	0x3e9a5bea	0.3014825
73	0x3e6d963d	0.23201843
74	0x3e938552	0.28812653
75	0x3c8a1bcd	0.01685896
76	0xbe360b95	-0.17777856
77	0x3aabe9a0	0.001311589
78	0x3ecc0abd	0.39851943
79	0x3ec8c2ff	0.3921127
80	0x3bfb8688	0.0076759495
81	0xbe23c7cd	-0.15994187
82	0x3f052a1d	0.52017385
83	0xbe0e36b4	-0.13888055
84	0xbe15a312	-0.14612988
85	0x3ea7b401	0.3275452
86	0x3ea1e673	0.3162113
87	0xbe3b6121	-0.1829877
88	0xbcf81f47	-0.030288352
89	0x3e92627e	0.2859077
90	0x3d6ae940	0.05735135
91	0xbe051d2b	-0.12999408
92	0x3d0f4f2b	0.03498761
93	0xbd9016b4	-0.0703558
94	0x3e9adb5d	0.30245486
95	0x3eb495dd	0.35270587
96	0xbe228d6f	-0.15874265
97	0x3ee6cfee	0.45080513
98	0x3de795f5	0.11307899
99	0x3e7a47f8	0.24441516
100	0x3e99be40	0.30027962
101	0x3e1c0f10	0.15240121
102	0xbd2ad013	-0.04170234
103	0xbe321c54	-0.17393619
104	0xbebcbd5a	-0.36863214
105	0xbe1d5bfb	-0.15367119
106	0x3d44d453	0.04805405
107	0xbe2b9d09	-0.16759123
108	0x3ec19ba8	0.3781407
109	0x3e31f13a	0.17377177
110	0xbeb690da	-0.35657388
111	0xbe37a583	-0.17934231
112	0x3e4d6ca4	0.20060974
113	0xbe293e3b	-0.16527645
114	0xbe200741	-0.15627767
115	0x3ee89900	0.4542923
116	0xbeb4ab63	-0.35287008
117	0xbd2979c3	-0.041375887
118	0x3eb95d6e	0.36204094
119	0x3e8d7874	0.2763096
120	0x3ec9cada	0.39412576
121	0x3e8c4981	0.2739983
122	0x3eb13033	0.34607086
123	0xbddae87c	-0.10688874
124	0x3e7792b2	0.24177054
125	0x3e99cc73	0.30038795
126	0xbb84ec22	-0.0040564695
127	0xbe3b5bfe	-0.18296811
128	0x3ea76cf1	0.32700303
129	0x3e4259ba	0.1897954
130	0x3cf11156	0.029427212
131	0xbeb93f54	-0.36181128
132	0xbe1063f2	-0.14100626
133	0x3e748028	0.23877013
134	0xbc1c17fe	-0.009527205
135	0xbeb4b978	-0.3529775
136	0xbe8a8f51	-0.27062467
137	0xbd624f1d	-0.05525123
138	0xbe1f04d1	-0.15529181
139	0xbe02185a	-0.12704602
140	0x3d6cdb14	0.057826117
141	0xbdb15795	-0.08659283
142	0x3b0b43cf	0.0021250134
143	0x3df77f73	0.12084856
144	0x3dd562a3	0.10419204
145	0x3e909bd5	0.2824389
146	0x3e79f902	0.24411395
147	0x3e70f211	0.23529841
148	0x3eb1a8ff	0.34699246
149	0xbea81ea6	-0.32835883
150	0xbdbc68e7	-0.09199696
151	0x3e3897a1	0.18026592
152	0x3e814e9e	0.25255293
153	0x3e01952f	0.12654565
154	0x3d9ef6fb	0.077619515
155	0xbdb43713	-0.08799567
156	0xbdbbe9e1	-0.09175468
157	0x3dcc4c04	0.09975436
158	0xbebe7e1d	-0.37205592
159	0x3e8ea481	0.27859882
160	0x3e00251d	0.12514158
161	0xbebca4c6	-0.36844462
162	0x3eb459ce	0.35224766
163	0x3ea68b3b	0.325281
164	0xbe303882	-0.17209056
165	0xbdde4c37	-0.108543806
166	0x3f058e24	0.52170014
167	0x3bb50ff5	0.005525584
168	0x3e48776d	0.19576807
169	0x3ee75da6	0.45188636
170	0x3d81ad2e	0.063318595
171	0x3dc9fd6e	0.09862791
172	0x3c8ee3c1	0.017442586
173	0x3ebc86b2	0.36821514
174	0x3e0bf978	0.13669384
175	0x3da21bc5	0.07915453
176	0x3b13f0d3	0.0022573962
177	0xbe214bf5	-0.15751632
178	0x3ec32fe2	0.3812247
179	0xbeb3810e	-0.35059398
180	0x3e879abd	0.26485243
181	0xbe345993	-0.17612295
182	0x3e903d97	0.2817199
183	0x3eef1f47	0.4670355
184	0x3cbe9490	0.0232642
185	0xbeab3cff	-0.33444974
186	0x3e1b97ae	0.1519458
187	0x3ec351ee	0.38148445
188	0x3ec0cd2a	0.37656528
189	0x3ebb28f8	0.36554694
190	0x3e582916	0.21109423
191	0xbeadfdd9	-0.33982733
192	0x3ea53a31	0.3227096
193	0x3ef19380	0.47182846
194	0x3bcb9429	0.0062127304
195	0x3ebc4cec	0.36777437
196	0xbbefc57c	-0.007317243
197	0x3bb5243b	0.0055280006
198	0x3dbb206a	0.09137042
199	0xbe1fb633	-0.15596847
200	0x3e019640	0.12654972
201	0xbc90fc0f	-0.017698316
202	0x3e5ddbdb	0.216659
203	0xbe93b807	-0.2885134
204	0xbdf47ca8	-0.11937839
205	0xbd0187c3	-0.031623613
206	0xbe8404e5	-0.25784984
207	0x3ed034f0	0.40665388
208	0x3c5e176e	0.013555391
209	0xbe57ec84	-0.21086317
210	0xbe0ee1eb	-0.13953368
211	0x3eb2697b	0.348461
212	0x3e7f1a50	0.24912381
213	0xbe15a6c1	-0.14614393
214	0x3e67c863	0.22635035
215	0xbdeea3c4	-0.116523296
216	0x3db2b314	0.08725563
217	0x3efa1656	0.48845166
218	0x3d4562e3	0.04819001
219	0x3dfe9ccc	0.124322504
220	0x3f0dcb29	0.5538812
221	0x3ec188c0	0.37799644
222	0x3e935fa0	0.28783894
223	0x3ea59d0e	0.32346386
224	0x3d6e7d33	0.058224868
225	0xbe3e8afc	-0.18607706
226	0xbe0842f0	-0.13306785
227	0x3eb2b219	0.34901503
228	0xbe0ebd13	-0.13939314
229	0x3e2d6a7e	0.16935155
230	0x3e404aa5	0.18778475
231	0xbdad912f	-0.08474957
232	0xbea39da6	-0.31956214
233	0x3eb0ae05	0.34507766
234	0x3dea08f4	0.11427489
235	0x3e82cfb5	0.25549093
236	0x3eac8759	0.33697012
237	0x3e9aa85a	0.30206567
238	0xbd586826	-0.0528337
239	0xbec34fe7	-0.38146898
240	0x3d8c55d4	0.06852308
241	0xbca8f71d	-0.020625645
242	0xbe485226	-0.19562587
243	0x3eb7d13e	0.35901827
244	0xbc447299	-0.011990213
245	0xbdf0ae90	-0.11752045
246	0xbb7ead4e	-0.0038860622
247	0x3e78eb7c	0.2430858
248	0xbeb54ab5	-0.3540856
249	0x3dfa7a13	0.12230315
250	0x3cf977d7	0.030452652
251	0x3e8f5a0f	0.27998397
252	0xbd976759	-0.07392759
253	0x3e2fd673	0.1717165
254	0xbe0a427d	-0.13501926
255	0x3ed053ba	0.40688878

gcn2.bias f4 [32]
0	0x3e24092a	0.16019121
1	0x3dd927cb	0.10603293
2	0x3e09fa41	0.1347437
3	0x3de3cebc	0.11123416
4	0xbdc22d51	-0.094813
5	0xbe0b8af5	-0.13627227
6	0x3df5c2ae	0.12000023
7	0xbe1b8814	-0.15188628
8	0x3e1286e6	0.14309272
9	0xbdbfea1a	-0.09370823
10	0x3e17ad44	0.1481219
11	0x3e1ff400	0.15620422
12	0x3e14a087	0.14514361
13	0x3e1ed969	0.15512623
14	0x3e06ccae	0.13164017
15	0xbdea5c00	-0.11443329
16	0xbdfee040	-0.12445116
17	0xbe0cb799	-0.13741912
18	0x3d70f9a8	0.05883184
19	0xbe001217	-0.125069
20	0xbe0b81c1	-0.13623716
21	0x3e2d7eb9	0.16942872
22	0x3e0a07e6	0.13479576
23	0xbe06c079	-0.1315936
24	0xbe0cf82a	-0.13766542
25	0xbe022a37	-0.12711416
26	0xbdfa1702	-0.1221142
27	0x3e375479	0.17903318
28	0xbddad4db	-0.1068513
29	0xbe1e01c7	-0.15430366
30	0x3db9b9d5	0.09068648
31	0xbe168f44	-0.14703089

gcn2.lin.weight f4 [32, 32]
0	0x3ec8b790	0.39202547
1	0x3ef3b07f	0.47595593
2	0xbe521d34	-0.20518953
3	0x3e6107da	0.21975651
4	0xbe012947	-0.12613402
5	0x3e225561	0.15852882
6	0x3e6ddf34	0.23229676
7	0x3dd8bb4f	0.10582601
8	0x3e3693fa	0.17829886
9	0xbd8e7dfb	-0.069576226
10	0x3e9ca22f	0.30592486
11	0xbd5af273	-0.053453874
12	0x3ee6e8c4	0.4509946
13	0xbdc82381	-0.09772397
14	0xbe093db2	-0.13402441
15	0x3e67099d	0.22562261
16	0xbe16dada	-0.14731923
17	0xbe25fd88	-0.16209996
18	0x3e1b1060	0.15142965
19	0x3d979527	0.074014954
20	0xbe0bc85d	-0.13650651
21	0x3e34206e	0.17590496
22	0x3eb80462	0.35940844
23	0x3e863403	0.26211557
24	0x3ec43946	0.38324946
25	0x3ec408f8	0.38288093
26	0x3e04cfca	0.1296989
27	0xbd3eca7c	-0.046579823
28	0xbe3a344a	-0.18184009
29	0x3ecd17f9	0.40057352
30	0xbd71808a	-0.058960475
31	0xbd1dff27	-0.03857341
32	0x3ea368bb	0.3191584
33	0xbe522bc2	-0.20524505
34	0x3d8cf825	0.06883267
35	0x3ec979b4	0.39350665
36	0x3dcf47dc	0.10121128
37	0xbcba9675	-0.022776822
38	0x3e06630b	0.1312372
39	0x3ec21448	0.37906098
40	0xbe23a6f1	-0.15981652
41	0xbd8c1a0f	-0.06840908
42	0x3bbf48f0	0.0058375522
43	0x3cd436a0	0.025904953
44	0x3be44d8c	0.006967252
45	0x3def6dc7	0.1169086
46	0x3e5a44dc	0.2131533
47	0xbd906b2c	-0.070516914
48	0x3e318265	0.17334898
49	0x3e740cf5	0.23833068
50	0x3e296982	0.16544154
51	0x3cd96129	0.026535587
52	0x3dca9716	0.098920986
53	0x3e801d60	0.2502241
54	0x3ec0cc82	0.37656027
55	0x3c4af097	0.012386463
56	0x3e6cb1ba	0.23114672
57	0x3d80b0a0	0.062836885
58	0x3d8ec070	0.06970298
59	0x3ed07694	0.40715468
60	0x3e1d5bab	0.15367
61	0xbd4a2cba	-0.04935906
62	0xbe1b277c	-0.15151781
63	0x3e4dd7fd	0.20101924
64	0x3ea3b914	0.3197714
65	0x3e058a6c	0.13041085
66	0x3d1095be	0.035299055
67	0x3ee1c870	0.44098234
68	0x3cb75a44	0.02238191
69	0x3e83a260	0.2570982
70	0x3e54ed6b	0.20793693
71	0x3e85bff4	0.2612301
72	0xbbbb464e	-0.005715168
73	0xbd831b00	-0.06401634
74	0x3ee11c39	0.43966845
75	0xbd821e2e	-0.063534126
76	0xbe2bd1f6	-0.16779312
77	0x3ede6560	0.43436718
78	0x3ed926c5	0.4241239
79	0x3c6dd94a	0.014517138
80	0xbcb1951c	-0.021677546
81	0x3e5dcc62	0.21659997
82	0x3e862c9b	0.26205906
83	0x3edaa78d	0.42705956
84	0x3e90141b	0.2814034
85	0x3e8616e8	0.2618935
86	0xbe1f198c	-0.15537089
87	0x3cb5e334	0.022203065
88	0x3d920179	0.07129187
89	0x3e5cd68a	0.21566215
90	0x3e977620	0.2958231
91	0xbe1a0a76	-0.15043053
92	0xbd0c3054	-0.034225777
93	0x3e7a95cf	0.2447121
94	0xbe0fc9ad	-0.14041777
95	0x3eaff0e7	0.3436348
96	0x3da05154	0.07828012
97	0xbe1ddbcd	-0.15415879
98	0xbd8b6e06	-0.06808095
99	0x3ed6a65f	0.41923806
100	0x3d8e6901	0.06953622
101	0x3e025720	0.12728548
102	0x3e3f516b	0.18683402
103	0x3e72f510	0.23726296
104	0xbde2f5ce	-0.1108204
105	0x3dc86148	0.0978418
106	0x3de1d149	0.11026246
107	0xbdd89031	-0.10574377
108	0x3e1de43c	0.15419096
109	0xbc12a6ba	-0.0089508835
110	0x3e9f3632	0.31096035
111	0xbe174441	-0.1477213
112	0x3ea6c432	0.3257156
113	0xbda8ebb0	-0.08248079
114	0xbe1568ea	-0.14590803
115	0xbe0261da	-0.1273264
116	0x3ece6136	0.4030854
117	0x3ddae527	0.106882386
118	0xbe0fb760	-0.14034796
119	0x3e9d0cab	0.30673727
120	0x3eb7bfc5	0.35888496
121	0x3ea3c20d	0.31983986
122	0x3d0f75ea	0.03502456
123	0x3d66bb17	0.056330767
124	0x3bc4ea8a	0.0060094045
125	0xbe40375d	-0.1877112
126	0xbddd5140	-0.10806513
127	0x3ec19d88	0.378155
128	0xbe705e79	-0.23473538
129	0xbe85bc73	-0.26120338
130	0xbeb99803	-0.36248788
131	0xbe92a0ee	-0.28638405
132	0xbeb304ad	-0.34964505
133	0xbe79760e	-0.2436144
134	0xbe37c7cc	-0.1794731
135	0x3deb5ac6	0.11491923
136	0xbeb11120	-0.34583378
137	0xbeab791c	-0.33490837
138	0xbeb55a2b	-0.35420355
139	0xbe8eeec5	-0.27916542
140	0xbeaef068	-0.3416779
141	0x3d84b777	0.06480306
142	0xbdd4f165	-0.10397605
143	0x3ea38cfb	0.31943497
144	0x3e1cfafb	0.15330116
145	0xbe891fac	-0.26781976
146	0xbe342d18	-0.17595327
147	0xbc95eb3f	-0.01830065
148	0xbe0985b3	-0.13429908
149	0xbea86a19	-0.32893446
150	0xbe144034	-0.14477617
151	0xbe9d9a28	-0.30781674
152	0x3e089f58	0.13342035
153	0xbe6ab1fc	-0.22919458
154	0xbe084ddc	-0.13310951
155	0xbea60ce9	-0.32431725
156	0x3e047fb5	0.12939341
157	0xbe274834	-0.16336137
158	0xbd1ec6e2	-0.03876389
159	0xbb5bdf9a	-0.0033550025
160	0xbe8b77ff	-0.27239987
161	0xbd753ab2	-0.05987043
162	0xbe797e7d	-0.24364658
163	0xbe5ff81f	-0.21871994
164	0xbe7c890f	-0.24661659
165	0xbe737780	-0.23776054
166	0xbe078d89	-0.13237585
167	0x3e014db8	0.12627304
168	0xbe3db66d	-0.18526621
169	0xbeb61d03	-0.3556901
170	0xbede7dd7	-0.43455383
171	0xbea1edc7	-0.31626722
172	0xbe82b2ab	-0.25526938
173	0xbccd9f7b	-0.02510046
174	0xbe8c9ad2	-0.2746187
175	0x3c639161	0.0138896415
176	0x3e22dd9a	0.15904847
177	0xbe091949	-0.13388552
178	0xbe9a557e	-0.3014335
179	0xbe0fa13e	-0.14026353
180	0xbeb976aa	-0.36223346
181	0xbe0f8129	-0.14014114
182	0x3c4b5c3c	0.012412127
183	0xbd84d1c8	-0.06485325
184	0xbe132a44	-0.14371592
185	0x3d80282b	0.062576614
186	0xbe73f7e0	-0.23825026
187	0xbdbc1e24	-0.09185436
188	0xbe457880	-0.19284248
189	0xbe8bcca4	-0.27304566
190	0xbb4597fe	-0.003015041
191	0xbd5a02ee	-0.05322545
192	0x3dab99f9	0.08378977
193	0x3ecbd02c	0.3980726
194	0x3c879a13	0.01655296
195	0x3e6b1f83	0.2296124
196	0x3ce0707e	0.02739739
197	0x3eb2c5cc	0.34916532
198	0x3e9748c4	0.29547703
199	0x3e184d7c	0.14873308
200	0x3e862e15	0.26207033
201	0x3eeb380d	0.459412
202	0x3eb01e8c	0.34398305
203	0x3e8771b3	0.26453933
204	0x3eae8626	0.34086722
205	0x3ea862a7	0.32887766
206	0x3ec17622	0.3778544
207	0xbcbc29e7	-0.0229692
208	0x3cef7510	0.029230624
209	0x3db6cae9	0.08925421
210	0x3c0e4a05	0.00868464
211	0x3eb1ec1a	0.34750444
212	0x3daa4728	0.08314353
213	0x3e6a5dc2	0.22887328
214	0xbe30c988	-0.17264378
215	0xbe18596c	-0.14877862
216	0x3e09a238	0.13440788
217	0xbd2f4803	-0.042793285
218	0xbd5b8017	-0.053588953
219	0xbd3a6e87	-0.045515563
220	0x3d8c487e	0.06849764
221	0x3e3ef6a7	0.18648778
222	0x3e908add	0.28230944
223	0xbe343479	-0.17598142
224	0x3de1d38a	0.11026676
225	0xbc9d3d96	-0.019194406
226	0xbdf46ae2	-0.11934449
227	0xbd8b0c20	-0.06789422
228	0x3ddd7c04	0.1081467
229	0xbec61e20	-0.3869486
230	0xbe3a6073	-0.18200855
231	0xbe6b7d78	-0.22997081
232	0xbd933276	-0.07187359
233	0xbde18485	-0.11011604
234	0xbe83a432	-0.2571121
235	0xbead8d80	-0.33897018
236	0xbea45137	-0.32093212
237	0xbe39e0c7	-0.18152152
238	0xbe01400d	-0.1262209
239	0xbe05e26e	-0.13074657
240	0xbdf76370	-0.12079513
241	0xbe9f23a5	-0.31081882
242	0x3cbf3225	0.02333934
243	0xbe48d64b	-0.19612996
244	0xbe8d2f12	-0.27574974
245	0xbd0f738f	-0.035022315
246	0x3cce8b78	0.025212988
247	0xbed79e70	-0.42113066
248	0xbd9972cd	-0.074926
249	0x3ce38687	0.027774109
250	0xbdf453a8	-0.11930019
251	0xbeae5ab8	-0.34053588
252	0xbe9cb925	-0.30610004
253	0xbe5acc52	-0.21367005
254	0xbe76ada2	-0.24089673
255	0xbe41ff12	-0.18944958

lstm.weight_ih_l0 f4 [256, 35]
0	0x3cf7a23d	0.030228728
1	0x3e0b6ad4	0.1361497
2	0x3dae70c6	0.085176036
3	0x3dc48b41	0.09596873
4	0xbad4be62	-0.0016231055
5	0xbe4f0fb9	-0.20220841
6	0x3d9c8399	0.07642288
7	0xbe354e17	-0.1770557
8	0x3e47b1cd	0.1950142
9	0xbe09d084	-0.13458449
10	0x3dbf165a	0.09330435
11	0x3c45df03	0.012077096
12	0x3e2d99d3	0.1695321
13	0x3e2b0de8	0.16704524
14	0x3e1d5df4	0.15367872
15	0xbd3f8e43	-0.04676653
16	0xbc9290e5	-0.017891357
17	0xbd6d41e6	-0.057924174
18	0x3df567d3	0.119826935
19	0xbde55cbd	-0.11199329
20	0xbc5bcd3e	-0.013415633
21	0x3dcb6a8e	0.09932433
22	0x3d8b12ad	0.067906715
23	0xbda97b27	-0.082754426
24	0xbd75e238	-0.060030192
25	0xbe54301f	-0.20721482
26	0xbcceb21a	-0.02523141
27	0x3e225816	0.15853915
28	0xbdabe8fd	-0.08394048
29	0xbdc65072	-0.096833125
30	0x3dd0ecc2	0.10201408
31	0xbe2cdfe6	-0.16882285
32	0xbd6de4d6	-0.058079563
33	0x3de23135	0.11044542
34	0x3ceffec0	0.029296279
35	0xbc2840a7	-0.010269321
36	0x3e3c1b53	0.18369798
37	0x3dde87aa	0.108657196
38	0x3e4fc7a0	0.20290995
39	0xbdd4e177	-0.103945665
40	0x3c29d197	0.0103649115
41	0xbbdd4392	-0.00675244
42	0xbdaf3b58	-0.08556241
43	0x3e4d92e1	0.20075561
44	0xbd744a9d	-0.05964147
45	0x3e174c6a	0.14775243
46	0x3ca77b39	0.0204445
47	0x3d034b4a	0.032054223
48	0x3e12a214	0.1431964
49	0x3e31bf39	0.17358102
50	0xbe2c3b74	-0.16819555
51	0x3c5aeabd	0.01336163
52	0xbdabbdb3	-0.08385792
53	0x3d950838	0.07276958
54	0xbe346c5f	-0.17619465
55	0xbda17c4b	-0.07885035
56	0x3e06cacc	0.13163298
57	0x3dc1dc92	0.094658986
58	0xbc8dc4d6	-0.017305773
59	0xbd1c72eb	-0.03819553
60	0xbdce7c20	-0.10082269
61	0xbd88b165	-0.0667446
62	0x3d9bf864	0.07615736
63	0xbdb7f359	-0.08981962
64	0xbe16f7fb	-0.14743035
65	0x3e682baf	0.22672914
66	0xbe39a9cf	-0.18131183
67	0xbdb40a12	-0.08790983
68	0xbc1a5ada	-0.009421075
69	0x3e1d761f	0.15377091
70	0xbc555acf	-0.013022139
71	0xbb1ab5e3	-0.0023606948
72	0x3982f84f	0.00024980537
73	0x3ca774d0	0.020441443
74	0x3e10f798	0.1415695
75	0x3e1ca186	0.15295991
76	0xbd27f453	-0.04100449
77	0x3dd36f4d	0.10323963
78	0xbdec7235	-0.11545221
79	0x3e655e10	0.22399163
80	0xbdeefbc7	-0.116691165
81	0xbe07d21e	-0.13263747
82	0xbdc856fe	-0.097822174
83	0xbd31affc	-0.043380722
84	0xbda5d0b1	-0.08096445
85	0x3d22955f	0.039693233
86	0x3d209846	0.03920772
87	0x3c201727	0.009771145
88	0xbe228a7a	-0.15873137
89	0x3e20e06d	0.15710612
90	0xb8721428	-5.7716068e-05
91	0xbe450681	-0.19240762
92	0xbc8c44af	-0.017122595
93	0x3d2830e2	0.041062243
94	0x3dfae42e	0.12250553
95	0x3d8a3199	0.06747741
96	0x3c923cb1	0.017851206
97	0xbd8de860	-0.06929088
98	0x3da2b619	0.079448886
99	0x3dc5cf43	0.09658673
100	0xbe1792e4	-0.14802128
101	0x3cb3399c	0.021878056
102	0xbd9595c8	-0.07303959
103	0x3cb2ba55	0.021817366
104	0x3dd1d89f	0.10246395
105	0x3e19f52d	0.15034933
106	0x3e459fa2	0.19299176
107	0x3e5c1d40	0.21495533
108	0x3e1c431e	0.15259978
109	0xbe4b2a55	-0.19840367
110	0xbe32eff0	-0.17474341
111	0x3e4670ac	0.19378918
112	0xbe4f82e4	-0.20264775
113	0x3e55f2e9	0.20893444
114	0xbe5969fa	-0.21231833
115	0x3e00e348	0.12586701
116	0x3cf4e90d	0.029896284
117	0x3e85af3d	0.2611026
118	0x3e7f89f3	0.24954967
119	0x3cd0d357	0.0254914
120	0xbe246f4a	-0.16058078
121	0xbd801020	-0.062530756
122	0xbe138eb4	-0.14409906
123	0x3dfb90ec	0.12283501
124	0xbde652b3	-0.112462424
125	0xbe49f41f	-0.19722031
126	0x3d564e66	0.05232086
127	0x3d8e1a6e	0.06938635
128	0xbda29baf	-0.079398505
129	0xbd5e54b8	-0.054280013
130	0xbd91302f	-0.070892684
131	0xbe931180	-0.2872429
132	0x3e312563	0.17299418
133	0xbe47c9e3	-0.19510607
134	0xbe430d92	-0.19048145
135	0x3e1ed6f9	0.15511693
136	0xbdb92238	-0.0903973
137	0x3b9fbe26	0.0048749624
138	0xbd0517fc	-0.032493576
139	0x3de43335	0.111425795
140	0x3c0a381c	0.008436229
141	0x3e0d5bef	0.13804601
142	0x3de43280	0.111424446
143	0x3e5d1b02	0.21592334
144	0xbde39a79	-0.11113448
145	0xbe8b9731	-0.27263787
146	0x3de5d05b	0.11221381
147	0xbda6261e	-0.08112739
148	0x3e8a02fb	0.269554
149	0xbd5521c8	-0.05203417
150	0x3e54026a	0.20704046
151	0x3e1a4439	0.15065087
152	0x3d96f4f4	0.0737094
153	0x3e51e142	0.20496085
154	0x3e95f281	0.29286578
155	0xbd2183a2	-0.039432175
156	0xbe087f50	-0.13329816
157	0xbd51371f	-0.05107796
158	0x3e7cd5b0	0.2469089
159	0xbe147626	-0.14498195
160	0xbe95afb8	-0.29235625
161	0x3d9997a3	0.074996255
162	0x3e677094	0.22601539
163	0xbe45d5dc	-0.19319862
164	0xbe65e9ba	-0.22452441
165	0xbdeca61d	-0.11555121
166	0xbe818383	-0.25295648
167	0x3e56dfa8	0.20983756
168	0xbdfcd9c7	-0.12346225
169	0xbe90b02c	-0.28259408
170	0x3deef362	0.11667515
171	0xbe6243af	-0.22096132
172	0x3c4655af	0.0121053895
173	0xbdee4dbd	-0.11635921
174	0x3dc49477	0.0959863
175	0x3e559fb0	0.20861697
176	0x3e8cc8fd	0.27497092
177	0x3e367f84	0.17822081
178	0x3dea187a	0.1143045
179	0xbe960be1	-0.29305938
180	0xbe78f12f	-0.24310754
181	0x3e1b4ad0	0.15165257
182	0xbe42515f	-0.18976353
183	0x3e036ae8	0.1283375
184	0xbdc57be3	-0.0964277
185	0x3d732c59	0.059368465
186	0x3e3480e1	0.17627288
187	0x3db42910	0.087968946
188	0x3d7afa89	0.061274085
189	0x3e22df10	0.15905404
190	0xbe016f39	-0.12640084
191	0xbe6adc64	-0.22935635
192	0xbe1b91db	-0.15192358
193	0x3e161eb6	0.14660153
194	0xbdb0fc83	-0.08641913
195	0xbe1f9ecd	-0.15587921
196	0x3d93b4aa	0.07212193
197	0x3d942ebf	0.072354786
198	0xbe217b20	-0.15769625
199	0xbdc07915	-0.093980946
200	0xbdec903b	-0.11550947
201	0xbdefe01e	-0.11712669
202	0x3e60fdd5	0.21971829
203	0xbdbc395b	-0.09190627
204	0xbe8ec984	-0.2788812
205	0x3d4d7eec	0.05016987
206	0xbe254445	-0.16139324
207	0x3c80e815	0.015735665
208	0xbd76f9f0	-0.060296953
209	0x3dcf3f87	0.10119539
210	0x3e586c80	0.2113514
211	0x3db3c19c	0.087771624
212	0x3da10138	0.078615606
213	0x3dc28dc9	0.094996996
214	0xbdce6f1f	-0.100797884
215	0x3d750385	0.05981781
216	0x3df7b79d	0.12095568
217	0x3cc2bccb	0.023771664
218	0x3dd7b675	0.10532848
219	0xbcebe94b	-0.028797766
220	0x3e00bbfa	0.12571707
221	0xbc878020	-0.016540587
222	0x3dcd3b18	0.10021037
223	0xbb8f6b6e	-0.0043768203
224	0xbc9aeb31	-0.018910976
225	0x3d8b2d07	0.06795698
226	0xbdf1fdc2	-0.118159786
227	0x3cc059c3	0.023480302
228	0x3dede341	0.11615611
229	0xbe284af4	-0.16434842
230	0x3ce7b0d2	0.028282557
231	0x3e6d7c66	0.23191985
232	0xbd6f9776	-0.058494054
233	0xbd1d3d72	-0.038388677
234	0xbdc53446	-0.09629111
235	0xbd63300a	-0.055465735
236	0xbdad1c90	-0.084527135
237	0xbd110b6b	-0.03541128
238	0xbe2d123a	-0.16901484
239	0xbd58539d	-0.052814115
240	0x3e34405f	0.1760268
241	0x3c5170c3	0.012783232
242	0x3cf7180a	0.03016283
243	0x3b5a2111	0.003328387
244	0x3c3acddb	0.011401619
245	0x3e097f28	0.13427413
246	0xbd012b19	-0.03153524
247	0xbd6fd444	-0.05855204
248	0x3e14b775	0.14523108
249	0xbbed1e33	-0.007236266
250	0xbda873c2	-0.08225204
251	0x3e00ee5e	0.1259093
252	0xbe1953a2	-0.1497331
253	0x3e07f52f	0.13277124
254	0xbe139211	-0.14411189
255	0x3ddb535e	0.107092604

lstm.weight_hh_l0 f4 [256, 64]
0	0xbe8428a9	-0.2581227
1	0xbdaff597	-0.085917644
2	0x3cbbb4a0	0.022913277
3	0xbea084e4	-0.31351388
4	0x3eb59281	0.35463336
5	0x3e587b8a	0.21140876
6	0xbe34abd3	-0.1764367
7	0xbe58635b	-0.21131651
8	0x3ea8187f	0.3283119
9	0x3e634ad4	0.22196513
10	0xbe19ff95	-0.15038903
11	0x3e691039	0.22760095
12	0x3e8008e4	0.25006783
13	0xbd5f81e9	-0.05456725
14	0xbe80a012	-0.25122124
15	0x3e0b8077	0.13623224
16	0x3e131da8	0.14366782
17	0xbe80fe30	-0.2519393
18	0x3ea975f3	0.330978
19	0x3eb3b827	0.35101435
20	0x3e5d4b64	0.2161079
21	0x3e97e255	0.29664865
22	0x3e79f734	0.24410707
23	0xbe22c007	-0.15893565
24	0xbe83c20c	-0.25733984
25	0x3db28c26	0.087181374
26	0xbdfcd5f1	-0.123454936
27	0xbe6038a2	-0.21896604
28	0xbe6b8daa	-0.2300326
29	0x3e85509f	0.26038072
30	0xbeb74df9	-0.35801676
31	0x3da1d25c	0.07901451
32	0xbe398be2	-0.18119767
33	0x3e8d30e6	0.2757637
34	0x3de8ecf7	0.113733225
35	0xbec7bf78	-0.39013267
36	0xbeba4cf7	-0.36386845
37	0xbe6c7403	-0.2309113
38	0x3da1246d	0.07868276
39	0xbe905991	-0.28193334
40	0xbeb28e5c	-0.34874237
41	0x3e1cd25a	0.15314618
42	0x3e08e417	0.1336826
43	0xbeaa1672	-0.3322025
44	0x3e929418	0.28628612
45	0xbe734431	-0.23756482
46	0xbe2cc718	-0.16872823
47	0xbd79a5d5	-0.060949165
48	0x3e1558ef	0.14584707
49	0xbeb245fc	-0.3481902
50	0x3dca740d	0.09885416
51	0xbe6aa072	-0.22912768
52	0xbe510168	-0.20410693
53	0x3ca0cb1f	0.019628106
54	0x3e4bd405	0.19905098
55	0x3eb25f83	0.34838495
56	0xbe9c76e3	-0.30559453
57	0x3b5ebeaf	0.0033988168
58	0x3e384178	0.17993724
59	0x3e77f9ed	0.24216433
60	0x3e7ac074	0.24487478
61	0xbd989095	-0.07449452
62	0xbdd0a875	-0.10188381
63	0xbeb456b8	-0.3522241
64	0xbc41eff4	-0.011836994
65	0xbd624fe9	-0.05525199
66	0xbdcc40b4	-0.09973279
67	0xbd840880	-0.06446934
68	0x3e5da62d	0.21645422
69	0x3e828bda	0.25497323
70	0xbe5bb086	-0.21454057
71	0xbe2fe60e	-0.17177603
72	0x3e1ee876	0.15518364
73	0x3db89537	0.090128355
74	0xbe8968f0	-0.26837873
75	0x3e1ddc7b	0.15416138
76	0x3e84d89e	0.25946516
77	0xbe0d756a	-0.13814321
78	0xbe9e3ac3	-0.30904207
79	0x3e98fce7	0.2988045
80	0x3e75ca15	0.2400287
81	0xbdef994e	-0.116991624
82	0x3e3bee4a	0.18352619
83	0x3e8ed61d	0.2789773
84	0x3ea431de	0.32069296
85	0x3e9091fb	0.28236374
86	0x3e46480e	0.19363424
87	0xbe716b1b	-0.23576014
88	0xbe36ff50	-0.17870831
89	0x3e2c231e	0.16810271
90	0xbe578d1f	-0.21049927
91	0xbdb77033	-0.08956947
92	0xbe533bf2	-0.20628336
93	0x3e87b786	0.26507205
94	0xbe16e9dd	-0.1473765
95	0x3d0d4355	0.03448804
96	0xbe57767a	-0.21041289
97	0x3e9ec5de	0.31010336
98	0x3e67552d	0.22591086
99	0xbddd08c0	-0.107926846
100	0xbe47971c	-0.19491237
101	0xbde750c0	-0.11294699
102	0x3cfdda6e	0.030987944
103	0xbe501af2	-0.20322779
104	0xbe97bb46	-0.29635066
105	0x3e3267a7	0.17422353
106	0xbce57f7e	-0.028014895
107	0xbdec66be	-0.11543034
108	0x3e3ac9e3	0.18241076
109	0xbe82f716	-0.25579137
110	0xbdf12448	-0.11774498
111	0x3dff9977	0.12480443
112	0x3e14e091	0.1453879
113	0xbe601c94	-0.21885902
114	0x3e8a6eb0	0.27037573
115	0xbe793d6e	-0.2433984
116	0xbdd307ab	-0.10304197
117	0x3e7a22e1	0.24427368
118	0x3d174d53	0.036938976
119	0x3ea76a96	0.32698506
120	0xbe9eedd5	-0.31040826
121	0xbe8dbee2	-0.27684695
122	0x3e04c349	0.1296512
123	0x3dc0db05	0.09416775
124	0x3e6ac4e6	0.22926673
125	0xbe553e7c	-0.20824617
126	0xbce88c42	-0.028387193
127	0xbe3603dc	-0.1777491
128	0xbc23c42a	-0.0099955
129	0xbe982bb1	-0.29720834
130	0x3e0c736e	0.13715908
131	0xbe7793e9	-0.24177517
132	0x3da280f0	0.07934749
133	0x3ec06959	0.37580374
134	0xbe137030	-0.14398265
135	0xbe805c9a	-0.2507065
136	0x3e9aa72c	0.30205667
137	0x3ec70d4c	0.38877332
138	0x3c814b9d	0.015783126
139	0x3c7d5031	0.015461014
140	0xbc6305ed	-0.013856393
141	0x3e533569	0.20625843
142	0xbe1b96b7	-0.15194212
143	0x3e9206e8	0.28520894
144	0x3810e29d	3.4543325e-05
145	0xbeaeb983	-0.3412591
146	0x3e353ba2	0.1769853
147	0x3ee068d9	0.43829992
148	0x3df12823	0.117752336
149	0xbd54e39b	-0.051974874
150	0x3d8e2844	0.06941274
151	0xbe568e79	-0.20952787
152	0xbed2b339	-0.4115236
153	0xbd4b4784	-0.04962875
154	0xbe0dd5cf	-0.13851093
155	0x3cf769da	0.030201841
156	0x3d1decb5	0.03855582
157	0x3e8cac11	0.27475026
158	0xbe963cc2	-0.2934323
159	0xbd70b22d	-0.05876367
160	0xbb5389c3	-0.0032278157
161	0x3e88587a	0.26630002
162	0x3e990992	0.29890114
163	0xbe2af563	-0.1669517
164	0xbebfd070	-0.37463713
165	0x3e5624a1	0.2091241
166	0xbeb23f04	-0.34813702
167	0xbe41bb36	-0.18919072
168	0xbe5985f9	-0.21242513
169	0xbe115873	-0.14193897
170	0xbd099798	-0.033591837
171	0xbe6d1886	-0.23153886
172	0x3e9d8294	0.30763686
173	0xbdb6a6e5	-0.08918551
174	0xbc982d4d	-0.018576289
175	0x3bd5d5b2	0.0065257186
176	0x3c9fbd8c	0.019499563
177	0xbe7e61f1	-0.24842049
178	0xbc010a87	-0.007876045
179	0xbeb440a1	-0.35205558
180	0x3d81f5f4	0.0634574
181	0x3de0997d	0.109667756
182	0x3db0a23f	0.08624696
183	0x3e913587	0.2836115
184	0xbee5012d	-0.4472746
185	0x3e317eff	0.17333601
186	0x3e5559e8	0.20835078
187	0x3e457c33	0.1928566
188	0x3ece4a9b	0.40291294
189	0xbc9eb078	-0.019371256
190	0xbea56b27	-0.32308313
191	0xbeaf9994	-0.34296858
192	0xbe8768d4	-0.26447165
193	0x3bd791e3	0.0065786703
194	0x3e4cc988	0.19998753
195	0xbe7685b2	-0.24074438
196	0xbd37b8de	-0.044854037
197	0x3e2d0f2f	0.16900323
198	0xbd6bb9fb	-0.05755041
199	0xbdb96db6	-0.09054129
200	0x3d893300	0.066991806
201	0x3d8f8a18	0.07008761
202	0xba99a56e	-0.0011722276
203	0x3c9d25ad	0.019183004
204	0x3c81db6b	0.015851697
205	0x3dc94604	0.098278075
206	0x3e0a1e0c	0.13488024
207	0x3e2837be	0.16427514
208	0x3e4a6a1c	0.1976704
209	0xbd4ff4c2	-0.05077053
210	0xbdaeca27	-0.08534651
211	0x3e22c7ef	0.15896581
212	0xbe45e2c6	-0.19324788
213	0x3e5183e6	0.20460472
214	0x3d5cbcd6	0.053891025
215	0xbe08da50	-0.1336453
216	0xbe54ca05	-0.2078019
217	0xbdaf3e8c	-0.08556852
218	0xbd8ab6bc	-0.06773135
219	0xbddc824e	-0.10767041
220	0x3d77810d	0.060425807
221	0x3dca5c1e	0.09880851
222	0xbd2108bb	-0.039314967
223	0x3cbe5687	0.023234619
224	0x3e0be098	0.13659894
225	0xbce594c8	-0.028025046
226	0x3e68a1c7	0.22717963
227	0xbe08d9b0	-0.13364291
228	0x3c81a0ca	0.01582374
229	0xbcce99b3	-0.025219774
230	0x3d85afa8	0.065276444
231	0xbd723b4f	-0.059138592
232	0xbe2ef3d5	-0.17085202
233	0xbe10c488	-0.1413747
234	0xbca9bcae	-0.020719852
235	0xbdb81de9	-0.0899008
236	0x3e2c52d2	0.16828468
237	0xbe660e02	-0.22466281
238	0xbd8a5b69	-0.06755716
239	0xbe1c5d2f	-0.15269922
240	0xbd9bbc61	-0.0760429
241	0xbcb29487	-0.021799339
242	0xbbb96d2b	-0.005658766
243	0xbd52ce90	-0.051466525
244	0xbd1a95b9	-0.037740443
245	0x3d8df0e7	0.06930714
246	0xbc4471b9	-0.011990004
247	0x3dc18487	0.09449106
248	0xbd49122b	-0.049089592
249	0x3e045635	0.1292351
250	0xbbd53953	-0.0065070777
251	0x3e115788	0.14193547
252	0x3e2a62ef	0.16639303
253	0x3d50b8bb	0.050957423
254	0xbe7e7dce	-0.24852678
255	0xbdc6838e	-0.09693061

lstm.bias_ih_l0 f4 [256]
0	0xbc88e784	-0.016711958
1	0x3dbb1e53	0.09136643
2	0xbdbbeeec	-0.0917643
3	0x3d6a95cf	0.057271775
4	0x3e5ea04d	0.21740837
5	0x3e8c3511	0.27384236
6	0xbd86fdf8	-0.065914094
7	0x3dc9dcf0	0.098565936
8	0x3dc97338	0.09836429
9	0x3e348a4f	0.17630886
10	0x3b70772a	0.003669212
11	0x3db01e08	0.08599478
12	0x3e61a7ca	0.22036663
13	0x3d803b44	0.06261304
14	0x3df36fa3	0.118865274
15	0x3e5f8dd2	0.21831444
16	0xbde2fd3b	-0.11083456
17	0x3db8a00c	0.090149015
18	0x3c224ccf	0.009906008
19	0xbb012df6	-0.0019711233
20	0x3ccf2a42	0.025288705
21	0x3d9d5ab0	0.07683313
22	0x3e1ea499	0.15492477
23	0x3e374507	0.17897426
24	0x3c3ff621	0.011716397
25	0x3e468f14	0.19390517
26	0x3bf1a2ee	0.007374159
27	0x3e0ded53	0.13860063
28	0x3e47aa2a	0.19498506
29	0x3e2e35b7	0.17012678
30	0x3e1da5fa	0.15395346
31	0xbbf8e35e	-0.0075954637
32	0x3c362a74	0.01111852
33	0x3e1fb5fa	0.15596762
34	0x3e58901e	0.21148726
35	0x3e1f1228	0.1553427
36	0x3debfa51	0.115223534
37	0x3d8c5d90	0.06853783
38	0x3d96fb51	0.073721536
39	0x3d610c79	0.054943535
40	0x3e630502	0.22169879
41	0x3c43597d	0.011923191
42	0xbd198df9	-0.03748891
43	0x3d592c72	0.053020902
44	0xbd0e15f7	-0.034688916
45	0x3d11339c	0.03544961
46	0x3da87585	0.0822554
47	0xbda3d564	-0.079996854
48	0x3e0fcb6d	0.14042445
49	0x3d114f39	0.035475943
50	0x3e24de12	0.16100338
51	0x3dc0b37c	0.09409234
52	0x3dc58a2f	0.09645497
53	0x3e06cd01	0.1316414
54	0x3e63ee2e	0.22258827
55	0x3d8b5b42	0.068045154
56	0x3e080aa9	0.13285317
57	0x3de4f1a8	0.11178905
58	0xbd4c3de9	-0.04986373
59	0x3c798448	0.015229292
60	0x3e2cde1b	0.16881602
61	0x3e0ea04e	0.13928339
62	0x3c5701d6	0.013122996
63	0x3e6ac451	0.22926451
64	0x3df91e2f	0.1216396
65	0xbbfa6feb	-0.007642736
66	0x3e29b19c	0.16571659
67	0x3e2885da	0.1645731
68	0x3e34773f	0.17623614
69	0x3e3be47a	0.18348876
70	0x3e5b40aa	0.21411386
71	0x3e6ee336	0.23328862
72	0x3e375553	0.17903642
73	0x3e576f7c	0.21038622
74	0x3d90fb67	0.07079201
75	0x3d2f99ac	0.042871162
76	0x3e1bc0cf	0.1521027
77	0x3e4dcd99	0.2009796
78	0x3e2687a9	0.16262688
79	0x3e50724c	0.20356101
80	0xbd37be31	-0.044859115
81	0x3d54db5e	0.051967017
82	0x3e1490ac	0.14508313
83	0x3d31fae0	0.043452144
84	0x3dd9f0e7	0.106416516
85	0x3d862ad4	0.065511376
86	0x3db8fbcb	0.09032401
87	0x3e50a851	0.20376708
88	0x3dd936e5	0.106061734
89	0x3e8094d2	0.2511354
90	0x3e56301b	0.20916788
91	0x3d64cd6e	0.055859976
92	0x3dcf843a	0.10132642
93	0x3ab9f5e8	0.0014187666
94	0x3dc87231	0.09787405
95	0x3c5d9e3e	0.013526497
96	0x3dc97209	0.098362036
97	0x3d179c76	0.037014447
98	0x3e503919	0.20334281
99	0x3e6e51f3	0.23273449
100	0x3e6020a6	0.21887454
101	0x3e4c4174	0.19946843
102	0x3daff3e6	0.08591442
103	0x3dc1b4f7	0.094583444
104	0x3e38b08b	0.18036096
105	0x3e049d7c	0.129507
106	0x3e0ee997	0.13956295
107	0x3e3a362a	0.18184724
108	0x3ce27932	0.027645681
109	0x3e0b7f9c	0.13622898
110	0x3d9d263c	0.07673308
111	0x3dc697ab	0.09696897
112	0x3e0c3617	0.13692509
113	0x3d48b777	0.04900309
114	0x3c276116	0.010216018
115	0x3c9e1cfd	0.019300932
116	0x3e4555f4	0.1927107
117	0x3dc1cc79	0.09462828
118	0x3da485fd	0.08033369
119	0x3e2501f7	0.16114031
120	0x3e4a350a	0.19746795
121	0x3def431c	0.11682722
122	0x3ce1fc4f	0.02758613
123	0xbcb6b695	-0.022303859
124	0x3e281a37	0.1641625
125	0x3e7205f0	0.23635077
126	0xbd91c2e2	-0.07117249
127	0x3e00d68f	0.12581848
128	0xbdffdba9	-0.12493069
129	0xbe7c1b64	-0.24619824
130	0x3dde9c40	0.10869646
131	0xbd910840	-0.07081652
132	0xbe164a15	-0.14676698
133	0x3e466f40	0.19378376
134	0x3d8fb6a2	0.07017256
135	0xbdbe99c3	-0.093066715
136	0x3e2695d9	0.162681
137	0x3e3c28cb	0.18374936
138	0x3d9efa47	0.0776258
139	0x3e02f77b	0.12789719
140	0xbdc98f92	-0.09841837
141	0x3da870f9	0.08224673
142	0x3bde9785	0.006792965
143	0x3e02c079	0.12768735
144	0x3d7a4067	0.061096575
145	0xbdbacb27	-0.091207795
146	0x3cd0ac8f	0.025472907
147	0x3e128cab	0.14311473
148	0xbdab1396	-0.08353345
149	0x3d38428e	0.044985346
150	0x3e41386c	0.1886918
151	0xbd98164f	-0.0742613
152	0xbd798280	-0.06091547
153	0xbda88f67	-0.08230477
154	0xbd0ad26d	-0.033892084
155	0x3de975fb	0.11399456
156	0xbcf52b73	-0.029927945
157	0x3da514b4	0.080605894
158	0xbcbf3de0	-0.023344934
159	0xbd120a3b	-0.035654288
160	0x3d55aa5c	0.05216442
161	0x3da9a5e7	0.082835965
162	0x3d8b8479	0.068123765
163	0x3cf1e28e	0.029526975
164	0xbe6ba41b	-0.2301182
165	0xbdc1d087	-0.094636016
166	0x3d85ddeb	0.06536468
167	0xbe28a20b	-0.16468064
168	0xbe4920d6	-0.19641432
169	0xbdcd0bd0	-0.10012019
170	0xbdf1d40e	-0.11808024
171	0xbe421d21	-0.18956424
172	0x3dc246b4	0.09486142
173	0x3d4b5686	0.049643062
174	0x3de19832	0.11015357
175	0xbcb82ad9	-0.022481369
176	0x3d33ad75	0.043866593
177	0xbd845930	-0.06462324
178	0xbd90628b	-0.070500456
179	0xbdfafb4e	-0.12254964
180	0xbe083670	-0.13302016
181	0x3c74464d	0.014909339
182	0xbd4acd90	-0.049512446
183	0x3e052e4e	0.13005945
184	0xbe326fc9	-0.17425455
185	0x3d645825	0.055748124
186	0xbc00054a	-0.007813761
187	0x3e3a3c04	0.18186957
188	0x3b9cae8c	0.00478155
189	0x3d2377fa	0.03990934
190	0xbdea845b	-0.11451026
191	0xbd58ae38	-0.052900523
192	0x3e10a8cf	0.14126895
193	0x3e4042e2	0.18775514
194	0x3e491e89	0.19640554
195	0x3e3e8ac3	0.18607621
196	0x3e065d42	0.13121513
197	0x3dc25b30	0.09490049
198	0x3cc29667	0.023753358
199	0x3e48e1e2	0.19617417
200	0x3da722dc	0.08160946
201	0x3dc6062f	0.09669148
202	0x3e42b568	0.19014513
203	0x3e6aa7f4	0.22915632
204	0x3e380b83	0.17973141
205	0x3db8d30f	0.09024631
206	0x3db395c8	0.08768803
207	0x3e4e572f	0.20150445
208	0x3d4e037e	0.0502963
209	0x3e0aea5a	0.1356596
210	0x3dcded21	0.100549944
211	0x3e2e8515	0.17042954
212	0x3da10123	0.07861545
213	0x3eaf112f	0.34192798
214	0xbcd2d625	-0.025736878
215	0x3e4f2f39	0.20232858
216	0x3e60c067	0.21948396
217	0x3df5d47e	0.1200342
218	0x3df1939f	0.117957346
219	0x3dcad34a	0.099035814
220	0x3e729a8a	0.23691764
221	0x3df48597	0.11939543
222	0x3de1241c	0.109932154
223	0x3ddce75e	0.10786317
224	0x3e3e6f3e	0.18597123
225	0x3e12a1bd	0.14319511
226	0x3d56b839	0.052421782
227	0x3e80278a	0.25030166
228	0x3e1b8f01	0.1519127
229	0x3e77f5fe	0.24214932
230	0x3df1c4af	0.118050925
231	0x3e10a36a	0.14124838
232	0x3d6efbac	0.05834548
233	0x3e27f1ee	0.16400883
234	0x3d3fb71a	0.04680548
235	0x3e544707	0.2073022
236	0x3e3fbad0	0.18723607
237	0x3c08658e	0.008324994
238	0x3dbfe10f	0.093690984
239	0x3e56d079	0.20977964
240	0x3e454c2d	0.1926734
241	0x3dc440f6	0.09582703
242	0x3e30eba6	0.17277393
243	0x3cced3df	0.025247512
244	0x3de6866a	0.11256106
245	0x3d9690ef	0.07351863
246	0x3d916ba6	0.071006104
247	0x3d2c0b0d	0.042002726
248	0x3d4a5a32	0.049402423
249	0x3e303408	0.17207348
250	0x3dcec2e6	0.10095768
251	0x3dab0488	0.08350474
252	0x3e0e2290	0.13880372
253	0x3d0dd56e	0.03462737
254	0xbd0facb5	-0.035076816
255	0x3d6a2a13	0.05716903

lstm.bias_hh_l0 f4 [256]
0	0xbbdec4cc	-0.0067983624
1	0x3e343674	0.17598897
2	0xbd30293c	-0.043008074
3	0x3e3783bc	0.17921346
4	0x3dbd61bf	0.09247159
5	0x3e69dc7f	0.22838019
6	0xbd9d24b8	-0.07673019
7	0xbc9cbff2	-0.019134495
8	0x3e0d847f	0.13820074
9	0x3d1aabcd	0.0377615
10	0xbccdd30b	-0.025125047
11	0x3e60aedc	0.21941704
12	0x3d84d0a6	0.06485109
13	0x3da745e2	0.08167626
14	0x3c4083e7	0.011750198
15	0x3e038c27	0.12846433
16	0x3c4e97b5	0.012609412
17	0x3dd8d1d4	0.105868965
18	0x3cfd27bd	0.030902738
19	0x3e316130	0.1732223
20	0x3ddd0b3b	0.10793158
21	0x3d72cb5d	0.059275974
22	0x3e09167a	0.1338748
23	0x3e182ce4	0.14860874
24	0x3e636136	0.22205052
25	0x3c00ff85	0.007873421
26	0x3de5efc7	0.112273745
27	0x3def9ce6	0.11699848
28	0x3e53306e	0.20623943
29	0x3e5de2d4	0.2166856
30	0x3db131de	0.086520895
31	0xbd2566c9	-0.040381227
32	0x3dd91caa	0.1060117
33	0x3d8887ce	0.06666528
34	0x3e2c67ff	0.16836546
35	0x3e58cea3	0.21172576
36	0x3d26e2e1	0.040743712
37	0xbc56ce7b	-0.013110752
38	0x3ceba91a	0.028767157
39	0x3a57af00	0.0008227676
40	0x3e2bf537	0.16792761
41	0xbddaa662	-0.10676266
42	0x3d87beaf	0.06628167
43	0x3dfd4b12	0.12367834
44	0x3e2dc2f6	0.16968903
45	0x3dea1c48	0.114311755
46	0x3d6acd39	0.05732462
47	0x3d38b083	0.04509021
48	0x3e5ca8a8	0.21548712
49	0x3c75368d	0.014966619
50	0x3dd295e1	0.102824934
51	0x3d884015	0.06652848
52	0x3e297cdd	0.16551538
53	0x3e723183	0.236517
54	0x3e48aa28	0.1959616
55	0x3e0fea7e	0.14054295
56	0x3d837fa7	0.06420832
57	0xbc115e99	-0.0088726515
58	0x3d97e44f	0.07416593
59	0x3e052fe0	0.13006544
60	0x3e72cf10	0.237118
61	0x3d4ea150	0.05044681
62	0x3d25c6b3	0.040472697
63	0x3d902b83	0.07039549
64	0x3df8c323	0.121465944
65	0x3ddee6fd	0.10883901
66	0x3e5bf18c	0.21478862
67	0x3e8006f9	0.2500532
68	0x3e34f057	0.17669807
69	0x3db09d37	0.08623736
70	0x3db742d4	0.08948293
71	0x3d74cac1	0.059763674
72	0x3de9b22f	0.11410939
73	0x3cfb6bcd	0.030691052
74	0x3e6c2708	0.23061764
75	0x3e420bfb	0.18949883
76	0x3e167d3c	0.1469621
77	0xbc8db610	-0.017298728
78	0x3d2055ee	0.03914445
79	0x3d939d2f	0.07207715
80	0x3df6f474	0.120583445
81	0x3d68957f	0.056783196
82	0x3c7ab9d1	0.015303091
83	0x3e0e7943	0.13913445
84	0x3e82f380	0.255764
85	0x3c4e6c62	0.012599083
86	0x3dd17eb7	0.10229247
87	0x3c8fbf8b	0.01754739
88	0x3e375446	0.17903242
89	0x3cddf909	0.027096288
90	0x3e5565df	0.20839642
91	0x3cf60715	0.030032674
92	0x3e820213	0.25392208
93	0x3db6fd0b	0.08934983
94	0x3de28b37	0.110617094
95	0x3d33f2cd	0.043932725
96	0x3d4c55ee	0.049886636
97	0x3e83507b	0.2564734
98	0x3c8a8f4d	0.016914034
99	0x3e265aab	0.16245525
100	0x3e41beca	0.18920437
101	0x3e824a53	0.2544733
102	0xbbeadc83	-0.0071674003
103	0x3d8c60c1	0.06854392
104	0x3e0f0330	0.1396606
105	0x3df9dfc7	0.12200885
106	0xbbf7f591	-0.0075671156
107	0x3d1d352c	0.038380787
108	0x3d77f3be	0.060535185
109	0x3dfa73a7	0.1222909
110	0x3d2de62e	0.042455845
111	0x3ddb8890	0.107194066
112	0x3d5934f8	0.05302903
113	0x3e0d5044	0.1380015
114	0x3d8db97a	0.069201425
115	0x3de2e5c3	0.1107898
116	0xb9a0bbcc	-0.00030657498
117	0x3d9061d9	0.07049913
118	0x3ddd1d55	0.1079661
119	0x3e496dfd	0.19670863
120	0x3ced9fe3	0.029006904
121	0x3e613ee0	0.21996641
122	0x3e6c9cd9	0.23106708
123	0x3de76e64	0.11300352
124	0x3e4fba1e	0.20285842
125	0x3e6204ad	0.22072096
126	0x3e031b08	0.1280328
127	0x3e70a5ab	0.23500697
128	0xbd9881ee	-0.07446657
129	0xbe1d12f1	-0.15339257
130	0x3de82521	0.11335207
131	0xbe5df27a	-0.21674529
132	0x3daeb3d7	0.085303955
133	0x3e096663	0.13417964
134	0xbe0954d0	-0.1341126
135	0xbe3d4e73	-0.18486957
136	0x3d2d8773	0.042365503
137	0xbc185714	-0.009298105
138	0x3c995090	0.018715173
139	0x3d4ca9a0	0.049966455
140	0x3dde8d66	0.10866813
141	0xbd49c925	-0.049264092
142	0xbd9ac5ea	-0.0755728
143	0x3e133b4d	0.1437809
144	0x3d61ac81	0.055096153
145	0xbe1f5891	-0.15561129
146	0xbd1a1e96	-0.037626825
147	0x3e3369f9	0.17520894
148	0xbe00a22d	-0.12561865
149	0x3dc53a17	0.096302204
150	0xbcec339f	-0.028833209
151	0xbd05bf23	-0.032652985
152	0xbd0e875b	-0.034797054
153	0xbdfa8e0f	-0.12234127
154	0x3bd4ab53	0.00649015
155	0x3c868165	0.016419122
156	0xbcdaab54	-0.026693024
157	0x3cbe88f5	0.023258666
158	0xbe09fb6b	-0.13474815
159	0x3d9b9370	0.07596481
160	0x3df67fea	0.120361164
161	0xbda27efe	-0.07934378
162	0x3e2d7b7d	0.16941638
163	0xbe1beda9	-0.15227379
164	0xbd9883de	-0.07447027
165	0x3dca84d1	0.09888614
166	0xbd8d3baa	-0.06896146
167	0xbdef945a	-0.11698218
168	0xbe0209ef	-0.12699102
169	0xbdb029ac	-0.08601698
170	0xbe2f7352	-0.17133835
171	0xbe643df6	-0.22289261
172	0x3d980a59	0.07423849
173	0xbe1b5453	-0.15168886
174	0x3e001b36	0.1251038
175	0xbd29f69f	-0.04149496
176	0xbe040a7f	-0.12894629
177	0xbd0d9176	-0.03456255
178	0x3bb319f6	0.0054657413
179	0xbe0338a6	-0.12814578
180	0xbb2aefa7	-0.0026082785
181	0x3d987a7d	0.07445238
182	0xbd2f5bfe	-0.04281234
183	0xbcc38c5d	-0.023870641
184	0xbe17e9f0	-0.14835334
185	0x3dedbd68	0.11608392
186	0x3b4a4e1c	0.003086931
187	0x3e1907db	0.14944403
188	0x3e2829ed	0.16422243
189	0x3dfc6c13	0.12325301
190	0xbe21c9bb	-0.1579961
191	0xbe048179	-0.12940015
192	0x3e4315ca	0.1905128
193	0x3e810a25	0.25203052
194	0x3e0586d1	0.1303971
195	0x3e32cd2b	0.17461078
196	0x3deab7e2	0.11460854
197	0x3b9a9930	0.0047179684
198	0x3e6f9891	0.23398043
199	0x3e4482e7	0.1919056
200	0x3df29483	0.118447326
201	0x3de83c53	0.11339631
202	0x3deff42a	0.117164925
203	0x3e251563	0.1612144
204	0xbd3f9da6	-0.046781205
205	0x3e1e0c39	0.1543435
206	0x3dd5e719	0.10444469
207	0x3dec38fe	0.11534308
208	0x3e477670	0.19478774
209	0x3db29c5f	0.08721232
210	0x3c01010c	0.007873785
211	0x3e4b7aa7	0.19871007
212	0x3e6ae03a	0.22937098
213	0x3e9af69f	0.30266282
214	0x3c0c1490	0.008549824
215	0x3e8c1b05	0.27364364
216	0x3dc87e7e	0.097897515
217	0x3e70db51	0.23521163
218	0x3dea0b87	0.1142798
219	0x3dcc19e8	0.09965879
220	0x3dca2b33	0.09871521
221	0x3e450538	0.19240272
222	0x3e2eb9f8	0.17063129
223	0x3e44491c	0.19168514
224	0xbcb41ea6	-0.02198727
225	0x3e2d3079	0.16913022
226	0x3debc38e	0.115119085
227	0x3e4f2b56	0.20231375
228	0x3dce00f7	0.10058778
229	0x3e01d983	0.1268063
230	0x3d3609d5	0.04444297
231	0x3e0c89d2	0.1372445
232	0x3ce4a3d9	0.02791016
233	0x3e30ab79	0.17252912
234	0x3e1a76c3	0.15084367
235	0x3e0902b3	0.13379936
236	0x3ccec56f	0.025240628
237	0x3c947d93	0.018126285
238	0x3e35eaee	0.177654
239	0x3d3042e6	0.04303255
240	0x3e5824cb	0.21107785
241	0x3d03543d	0.032062758
242	0x3d398114	0.045289114
243	0x3e2e9c2f	0.17051767
244	0x3dfa2de8	0.12215787
245	0x3d15c926	0.036568783
246	0x3e109ac8	0.14121544
247	0xbd8d00f6	-0.06884949
248	0x3d16ff26	0.036864422
249	0x3e5f72f0	0.21821189
250	0x3e1c9128	0.15289748
251	0x3e150edb	0.14556448
252	0x3d214959	0.03937659
253	0x3d8db10c	0.06918535
254	0x3e208348	0.1567508
255	0x3e3da072	0.18518236

mlp.0.weight f4 [64, 64]
0	0xbe6c835c	-0.23096985
1	0xbe80ae92	-0.25133187
2	0x3dd39d25	0.10332707
3	0xbe3e8a2a	-0.18607393
4	0x3e16b280	0.1471653
5	0x3ebddae3	0.3708106
6	0xbf02dc29	-0.5111719
7	0xbe8f076d	-0.27935353
8	0x3e950034	0.29101717
9	0xbe63d05a	-0.22247449
10	0x3dedfef3	0.11620893
11	0xbe76b67c	-0.2409305
12	0x3e93f7b4	0.2889992
13	0x3e56cebb	0.20977299
14	0x3e79a4b8	0.24379241
15	0x3e4d1b06	0.2002984
16	0x3e732551	0.23744704
17	0xbef8cede	-0.48595327
18	0xbe9e4653	-0.30913028
19	0x3e230afb	0.15922157
20	0xbe789218	-0.2427448
21	0x3e73fbb4	0.23826486
22	0x3ea4f3e2	0.32217318
23	0xbe272e2b	-0.16326205
24	0xbe8c29db	-0.27375683
25	0xbe103c0c	-0.14085406
26	0x3e377521	0.17915775
27	0x3d9868a5	0.07441834
28	0xbe89639d	-0.2683381
29	0x3eda1f37	0.4260194
30	0xbebfa475	-0.37430158
31	0xbe005cea	-0.12535444
32	0x3ddd1d4d	0.10796604
33	0xbdc4077f	-0.09571742
34	0x3e69a352	0.22816208
35	0xbe51f4ca	-0.20503536
36	0xbeef3103	-0.4671708
37	0x3eb9fa68	0.36323857
38	0xbe85f126	-0.26160544
39	0xbe314c26	-0.17314205
40	0xbe9f2af3	-0.31087455
41	0xbe480012	-0.19531277
42	0xbe8d472e	-0.27593368
43	0xbeb35b14	-0.35030425
44	0x3e4b6f16	0.19866595
45	0xbe8fbafd	-0.28072348
46	0x3e734823	0.23757987
47	0xbe42d051	-0.19024779
48	0xbe226b9e	-0.15861365
49	0x3dd62d57	0.10457867
50	0xbe0ce1dd	-0.13758035
51	0xbec5bf18	-0.38622355
52	0xbec7a804	-0.38995373
53	0x3e4b8c39	0.1987771
54	0xbd0b44f9	-0.034001324
55	0x3ef72872	0.48273045
56	0xbea87caf	-0.32907626
57	0x3e3ade89	0.18248953
58	0xbe516240	-0.20447636
59	0x3e4b95b4	0.19881326
60	0x3e155b37	0.14585577
61	0x3e7ae98a	0.2450315
62	0xbe6bbb92	-0.23020771
63	0xbe901219	-0.28138807
64	0xbe911bc2	-0.2834149
65	0xbdf780e6	-0.12085132
66	0x3ea73f45	0.32665458
67	0x3ee0ec2d	0.43930188
68	0xbe50f197	-0.20404659
69	0xbd8c2b39	-0.068441816
70	0x3edbc31f	0.42922303
71	0x3ef64da9	0.48106125
72	0xbdb8e01b	-0.0902712
73	0xbe181c17	-0.14854465
74	0x3e56fe11	0.20995356
75	0xbecfef5e	-0.4061231
76	0xbefff798	-0.49993587
77	0x3e10af87	0.14129458
78	0x3dee418a	0.11633594
79	0x3dccad4a	0.0999399
80	0x3e807495	0.25088945
81	0x3eb0bf33	0.34520873
82	0xbe797cb9	-0.24363984
83	0x3e0861eb	0.13318603
84	0xbe5df385	-0.21674927
85	0x3e0c4ce7	0.13701211
86	0x3d90a90f	0.07063495
87	0xbcc81ab1	-0.02442679
88	0xbe054ad1	-0.13016821
89	0xbe2a119e	-0.16608283
90	0x3e525258	0.20539224
91	0x3e93f709	0.2889941
92	0x3eadf43c	0.339754
93	0xbef142ea	-0.47121364
94	0x3ea1dad2	0.3161226
95	0xbde4b794	-0.11167827
96	0x3dd541e0	0.10412955
97	0xbebc2a93	-0.36751232
98	0x3e2ad3a1	0.16682293
99	0x3c0bee4f	0.008540704
100	0x3ebfb6db	0.37444195
101	0xbf073ad4	-0.5282414
102	0xbe0fd760	-0.14047003
103	0xbe807874	-0.25091898
104	0xbe01fb32	-0.1269348
105	0xbea0c404	-0.31399548
106	0xbe2b8c54	-0.1675275
107	0x3ed0daa9	0.40791824
108	0x3e54bfb5	0.20776255
109	0xbeab1d77	-0.33420917
110	0x3ce18bdd	0.027532512
111	0xbea68e48	-0.32530427
112	0xbe2aee56	-0.1669248
113	0x3e08a60a	0.13344589
114	0xbe15bac4	-0.14622027
115	0x3dfd5ba8	0.12370998
116	0x3eb75af5	0.35811582
117	0x3e1e0839	0.15432824
118	0xbc76b2e8	-0.015057303
119	0xbe8d4cc0	-0.27597618
120	0x3ca75fa5	0.020431349
121	0x3e8bc5d1	0.2729936
122	0xbe9272dc	-0.28603256
123	0x3eb1180c	0.3458866
124	0xbe941c71	-0.2892795
125	0x3e02fe24	0.1279226
126	0xbde37520	-0.11106324
127	0xbe1cd38e	-0.15315077
128	0xbe2d6532	-0.16933134
129	0xbe7919b8	-0.24326217
130	0x3e7b4e28	0.24541533
131	0x3eb68d60	0.35654736
132	0xbe0da229	-0.1383139
133	0x3eb72eee	0.35777992
134	0x3e26775f	0.16256474
135	0x3ccc2677	0.024920685
136	0x3e5cacfa	0.2155036
137	0xbe426e5a	-0.18987408
138	0x3e06f166	0.13178024
139	0xbeb146e2	-0.34624392
140	0xbe77b87b	-0.24191467
141	0x3e79f598	0.24410093
142	0x3eb0edfb	0.34556565
143	0x3e6b43f3	0.2297514
144	0x3e829138	0.25501418
145	0x3e41c26b	0.18921821
146	0xbe13f1e1	-0.14447738
147	0x3e51d24c	0.20490378
148	0xbe82f0b8	-0.2557428
149	0x3e4aca11	0.19803645
150	0x3e8f1eaf	0.27953097
151	0xbe9fd4b9	-0.31216982
152	0xbec46810	-0.38360643
153	0xbe5acf69	-0.21368183
154	0x3ec34b6d	0.38143483
155	0x3e555f4b	0.20837133
156	0x3e71b192	0.23602894
157	0xbd40f826	-0.047111653
158	0x3e1f5d85	0.15563019
159	0xbe8cd910	-0.27509356
160	0x3e10fad3	0.14158182
161	0xbeb583b6	-0.3545205
162	0x3e88c39e	0.26711744
163	0xbead6f9e	-0.3387422
164	0x3e736a52	0.23771027
165	0xbe5d5976	-0.21616158
166	0xbea86061	-0.3288603
167	0xbe8fcb53	-0.28084812
168	0xbe776673	-0.24160175
169	0xbe92a53c	-0.2864169
170	0xbe98e845	-0.29864708
171	0x3e774a0d	0.24149342
172	0x3ea59219	0.32338026
173	0xbe9fc3bb	-0.31204018
174	0x3ec6c44c	0.38821638
175	0xbea16d47	-0.31528684
176	0xbe3a2275	-0.18177207
177	0x3e1021c6	0.14075384
178	0xbea4d87d	-0.32196417
179	0xbd48e9a7	-0.049050953
180	0x3e720530	0.23634791
181	0x3ea91946	0.33027095
182	0xbe9c4311	-0.30519918
183	0x3e627e34	0.22118455
184	0xbeab76e0	-0.33489132
185	0x3e7ef500	0.24898148
186	0xbe842e16	-0.2581641
187	0x3e131f2b	0.14367358
188	0xbe644679	-0.22292508
189	0x3ec2bd41	0.38035014
190	0xbe9c3207	-0.30506918
191	0xbe77ace1	-0.24187042
192	0xbe9bf2f0	-0.30458784
193	0xbea16866	-0.31524962
194	0x3df863b6	0.12128393
195	0xbd4a5162	-0.04939402
196	0xbdc71f4a	-0.09722765
197	0x3e478100	0.19482803
198	0xbc05699a	-0.008142853
199	0xbde1fdbd	-0.11034725
200	0x3e7eec22	0.24894765
201	0xbec745bd	-0.38920394
202	0x3e60bca3	0.21946959
203	0xbe0e599e	-0.13901374
204	0x3e79700e	0.24359152
205	0x3d0b3a72	0.033991285
206	0x3e9d5c43	0.30734453
207	0x3dda98af	0.10673653
208	0x3dc93d41	0.098261364
209	0xbe15c74b	-0.14626805
210	0xbe0482b6	-0.12940487
211	0x3eb2bbf9	0.34909037
212	0xbe59509c	-0.21222156
213	0x3e8703cc	0.26370084
214	0x3e86cb4d	0.2632698
215	0xbe1e4675	-0.15456565
216	0xbe971a0b	-0.29512057
217	0xbe2ed858	-0.17074716
218	0x3e02727e	0.12738988
219	0x3e58f6a6	0.21187839
220	0x3dc9dbb1	0.09856356
221	0x3daad9b9	0.083423086
222	0xbe5643b5	-0.20924266
223	0xbea67db0	-0.32517767
224	0x3e996682	0.2996102
225	0xbe328e01	-0.17436983
226	0x3da9996c	0.08281216
227	0xbe9d4758	-0.30718493
228	0xbcd79bd7	-0.026319427
229	0x3dd58184	0.10425094
230	0xbe5cd7cc	-0.21566695
231	0xbdc6519d	-0.09683535
232	0xbd85f7a0	-0.06541371
233	0xbe8144b1	-0.2524772
234	0xbeb2d565	-0.34928432
235	0xbd0653f9	-0.032794926
236	0x3e9af4a5	0.30264774
237	0xbdc0daf2	-0.094167605
238	0x3e630a95	0.22172005
239	0xbe945205	-0.28968826
240	0xbe971daf	-0.29514834
241	0x3e9a9817	0.3019416
242	0xbe9cd82d	-0.3063368
243	0xbe3d58db	-0.18490927
244	0xbde89cb3	-0.11358013
245	0x3dbc62b3	0.09198513
246	0xbe593bd8	-0.21214235
247	0x3d268d44	0.040662065
248	0xbdf7df1b	-0.12103101
249	0x3e1a124f	0.15046047
250	0xbeaa7c70	-0.33298063
251	0x3e4b5b7e	0.1985912
252	0xbe3e3265	-0.18573911
253	0x3ea95c87	0.33078405
254	0xbe4bfeda	-0.19921437
255	0xbe5cf4b8	-0.21577728

mlp.0.bias f4 [64]
0	0x3e69c285	0.2282811
1	0x3ea5be8b	0.32371935
2	0x3e852bac	0.26009881
3	0x3e3a5597	0.18196712
4	0x3e1524c5	0.14564808
5	0x3d78833d	0.060672034
6	0x3e310113	0.17285566
7	0x3e751ebf	0.2393751
8	0xbd5e231f	-0.054232713
9	0x3e019574	0.12654668
10	0x3e3af4c8	0.18257439
11	0x3e078592	0.13234547
12	0x3dbcf822	0.09227015
13	0x3ea0767a	0.3134039
14	0x3e984b2c	0.29744852
15	0x3e3e0d10	0.1855967
16	0x3ee0d40d	0.43911782
17	0x3e357fa4	0.17724472
18	0x3dbc5d69	0.09197504
19	0x3e258861	0.16165306
20	0x3e80743f	0.2508869
21	0x3e434fad	0.19073363
22	0xbbb02deb	-0.0053765676
23	0x3e4d772a	0.20064989
24	0x3e30cafa	0.1726493
25	0x3e6c4333	0.2307251
26	0x3da342ec	0.07971749
27	0x3ed7889a	0.42096406
28	0x3e129b95	0.14317162
29	0x3e84249b	0.25809178
30	0x3e97ee47	0.2967398
31	0x3df8aeee	0.1214274
32	0x3db73c18	0.08947009
33	0x3e430f2a	0.19048753
34	0xbe091054	-0.13385135
35	0x3e9c7f35	0.305658
36	0x3eda8e46	0.4268667
37	0x3e3568d2	0.17715767
38	0x3e236ad4	0.1595872
39	0x3e14f9f0	0.14548469
40	0x3e967f0a	0.29393798
41	0x3e3ce8e1	0.18448211
42	0x3d1488cf	0.036263283
43	0x3e9c7651	0.30559018
44	0x3df139ad	0.11778579
45	0x3ed878c0	0.42279625
46	0x3e680790	0.22659135
47	0x3e2c7aa8	0.16843665
48	0x3e8e4b41	0.2779179
49	0x3e5fd22e	0.21857521
50	0x3d99f206	0.075168654
51	0x3ed634e6	0.41837233
52	0x3e86ee2d	0.2635359
53	0x3e97d88f	0.2965741
54	0x3d95ab5f	0.07308077
55	0x3e9b3231	0.3031173
56	0x3e75c140	0.239995
57	0x3e76eff4	0.24114972
58	0x3e390e63	0.18071894
59	0x3e938d01	0.28818515
60	0x3ddb5497	0.107094936
61	0x3dbba8e1	0.091630705
62	0x3eb498c1	0.35272792
63	0x3e0d59aa	0.13803735
